…
rflow::set_random_seed(42) model %&gt;% fit(x = trainX, y = trainX, validation_data = list(valX, valX), epochs = 25, verbose = 2, callbacks = list(cp_callback)) Instead of running this snippet again, we can load in a pre-run model I already saved. model = load_model_hdf5(&#39;data/RickandMorty/data/models/modelAE.h5&#39;) summary(model) ## Model: &quot;sequential_7&quot; ## ________________________________________________________________________________ ## Layer (type) Output Shape Param # ## ================================================================================ ## conv2d_3 (Conv2D) (None, 86, 156, 20) 1520 ## ## activation_3 (Activation) (None, 86, 156, 20) 0 ## ## conv2d_4 (Conv2D) (None, 82, 152, 20) 10020 ## ## activation_4 (Activation) (None, 82, 152, 20) 0 ## ## conv2d_5 (Conv2D) (None, 78, 148, 64) 32064 ## ## activation_5 (Activation) (None, 78, 148, 64) 0 ## ## conv2d_transpose (Conv2DTranspose) (None, 82, 152, 64) 102464 ## ## activation_6 (Activation) (None, 82, 152, 64) 0 ## ## conv2d_transpose_1 (Conv2DTranspos (None, 86, 156, 20) 32020 ## e) ## ## activation_7 (Activation) (None, 86, 156, 20) 0 ## ## conv2d_transpose_2 (Conv2DTranspos (None, 90, 160, 20) 10020 ## e) ## ## activation_8 (Activation) (None, 90, 160, 20) 0 ## ## conv2d_6 (Conv2D) (None, 90, 160, 3) 1503 ## ## activation_9 (Activation) (None, 90, 160, 3) 0 ## ## ================================================================================ ## Total params: 189,611 ## Trainable params: 189,611 ## Non-trainable params: 0 ## ________________________________________________________________________________ We can see that this model condenses down the images from \\(90 \\times 160\\) pixel images down to \\(78 \\times 148\\) (not a huge compression, b
…
